…
<span class="n">leave_outer</span><span class="o">=</span><span class="bp">True</span><span class="p">)]</span>

<span class="n">model</span><span class="p">.</span><span class="nf">summary</span><span class="p">()</span>
</code></pre></div></div>

<div class="language-plaintext highlighter-rouge"><div class="highlight"><pre class="highlight"><code>Model: "sequential_1"
_________________________________________________________________
Layer (type)                 Output Shape              Param #   
=================================================================
conv2d_1 (Conv2D)            (None, 220, 220, 32)      2432      
_________________________________________________________________
batch_normalization_1 (Batch (None, 220, 220, 32)      128       
_________________________________________________________________
conv2d_2 (Conv2D)            (None, 216, 216, 64)      51264     
_________________________________________________________________
max_pooling2d_1 (MaxPooling2 (None, 108, 108, 64)      0         
_________________________________________________________________
batch_normalization_2 (Batch (None, 108, 108, 64)      256       
_________________________________________________________________
dropout_1 (Dropout)          (None, 108, 108, 64)      0         
_________________________________________________________________
conv2d_3 (Conv2D)            (None, 104, 104, 64)      102464    
_________________________________________________________________
batch_normalization_3 (Batch (None, 104, 104, 64)      256       
_________________________________________________________________
conv2d_4 (Conv2D)            (None, 100, 100, 64)      102464    
_________________________________________________________________
max_pooling2d_2 (MaxPooling2 (None, 50, 50, 64)        0         
_________________________________________________________________
batch_normalization_4 (Batch (None, 50, 50, 64)        256       
_________________________________________________________________
dropout_2 (Dropout)          (None, 50, 50, 64)        0         
_________________________________________________________________
conv2d_5 (Conv2D)            (None, 46, 46, 128)       204928    
_________________________________________________________________
batch_normalization_5 (Batch (None, 46, 46, 128)       512       
_________________________________________________________________
conv2d_6 (Conv2D)            (None, 42, 42, 128)       409728    
_________________________________________________________________
max_pooling2d_3 (MaxPooling2 (None, 21, 21, 128)       0         
_________________________________________________________________
batch_normalization_6 (Batch (None, 21, 21, 128)       512       
_________________________________________________________________
dropout_3 (Dropout)          (None, 21, 21, 128)       0         
_________________________________________________________________
conv2d_7 (Conv2D)            (None, 17, 17, 256)       819456    
_________________________________________________________________
batch_normalization_7 (Batch (None, 17, 17, 256)       1024      
_________________________________________________________________
conv2d_8 (Conv2D)            (None, 13, 13, 256)       1638656   
_________________________________________________________________
max_pooling2d_4 (MaxPooling2 (None, 6, 6, 256)         0         
_________________________________________________________________
batch_normalization_8 (Batch (None, 6, 6, 256)         1024      
_________________________________________________________________
dropout_4 (Dropout)          (None, 6, 6, 256)         0         
_________________________________________________________________
flatten_1 (Flatten)          (None, 9216)              0         
_________________________________________________________________
dense_1 (Dense)              (None, 256)               2359552   
_________________________________________________________________
batch_normalization_9 (Batch (None, 256)               1024      
_________________________________________________________________
dropout_5 (Dropout)          (None, 256)               0         
_________________________________________________________________
dense_2 (Dense)              (None, 256)               65792     
_________________________________________________________________
batch_normalization_10 (Batc (None, 256)               1024      
_________________________________________________________________
dropout_6 (Dropout)          (None, 256)               0         
_________________________________________________________________
dense_3 (Dense)              (None, 12)                3084      
=================================================================
Total params: 5,765,836
Trainable params: 5,762,828
Non-trainable params: 3,008
_________________________________________________________________
</code></pre></div></div>

<pre><code class="language-pythonpython"># Fit the model
history = model.fit_generator(generator.flow(X_train, y_train, batch_size=batch_size),
                    epochs=50,
…
<div class="language-python highlighter-rouge"><div class="highlight"><pre class="highlight"><code><span class="c1"># summary
</span><span class="n">model_cnn</span><span class="p">.</span><span class="nf">summary</span><span class="p">()</span>
</code></pre></div></div>

<div class="language-plaintext highlighter-rouge"><div class="highlight"><pre class="highlight"><code>Model: "sequential_2"
_________________________________________________________________
Layer (type)                 Output Shape              Param #   
=================================================================
conv2d (Conv2D)              (None, 28, 28, 32)        832       
_________________________________________________________________
max_pooling2d (MaxPooling2D) (None, 14, 14, 32)        0         
_________________________________________________________________
dropout_3 (Dropout)          (None, 14, 14, 32)        0         
_________________________________________________________________
conv2d_1 (Conv2D)            (None, 14, 14, 32)        25632     
_________________________________________________________________
max_pooling2d_1 (MaxPooling2 (None, 7, 7, 32)          0         
_________________________________________________________________
dropout_4 (Dropout)          (None, 7, 7, 32)          0         
_________________________________________________________________
flatten_2 (Flatten)          (None, 1568)              0         
_________________________________________________________________
dense_8 (Dense)              (None, 256)               401664    
_________________________________________________________________
dropout_5 (Dropout)          (None, 256)               0         
_________________________________________________________________
dense_9 (Dense)              (None, 10)                2570      
=================================================================
Total params: 430,698
Trainable params: 430,698
Non-trainable params: 0
_________________________________________________________________
</code></pre></div></div>

<div class="language-python highlighter-rouge"><div class="highlight"><pre class="highlight"><code><span class="c1"># Train the Model
</span><span class="n">history_no_augm</span> <span class="o">=</span> <span class="n">model_cnn</span><span class="p">.</span><span class="nf">fit_generator</span><span class="p">(</span>
…
